…
8, 100),\n","    nn.ReLU(),\n","    nn.Linear(100, output_size)\n",")\n","\n","model.to(device)\n","\n","for param in model.heads.parameters():\n","    param.requires_grad =  True"]},{"cell_type":"code","execution_count":null,"metadata":{"colab":{"base_uri":"https://localhost:8080/"},"executionInfo":{"elapsed":13,"status":"ok","timestamp":1730797038872,"user":{"displayName":"hi ho","userId":"08570313625643390925"},"user_tz":-540},"id":"ieFzKD8tHWLA","outputId":"8902715d-306e-4b2d-c724-4ba40d4ad95b"},"outputs":[{"output_type":"stream","name":"stdout","text":["VisionTransformer(\n","  (conv_proj): Conv2d(3, 768, kernel_size=(16, 16), stride=(16, 16))\n","  (encoder): Encoder(\n","    (dropout): Dropout(p=0.0, inplace=False)\n","    (layers): Sequential(\n","      (encoder_layer_0): EncoderBlock(\n","        (ln_1): LayerNorm((768,), eps=1e-06, elementwise_affine=True)\n","        (self_attention): MultiheadAttention(\n","          (out_proj): NonDynamicallyQuantizableLinear(in_features=768, out_features=768, bias=True)\n","        )\n","        (dropout): Dropout(p=0.0, inplace=False)\n","        (ln_2): LayerNorm((768,), eps=1e-06, elementwise_affine=True)\n","        (mlp): MLPBlock(\n","          (0): Linear(in_features=768, out_features=3072, bias=True)\n","          (1): GELU(approximate='none')\n","          (2): Dropout(p=0.0, inplace=False)\n","          (3): Linear(in_features=3072, out_features=768, bias=True)\n","          (4): Dropout(p=0.0, inplace=False)\n","        )\n","      )\n","      (encoder_layer_1): EncoderBlock(\n","        (ln_1): LayerNorm((768,), eps=1e-06, elementwise_affine=True)\n","        (self_attention): MultiheadAttention(\n","          (out_proj): NonDynamicallyQuantizableLinear(in_features=768, out_features=768, bias=True)\n","        )\n","        (dropout): Dropout(p=0.0, inplace=False)\n","        (ln_2): LayerNorm((768,), eps=1e-06, elementwise_affine=True)\n","        (mlp): MLPBlock(\n","          (0): Linear(in_features=768, out_features=3072, bias=True)\n","          (1): GELU(approximate='none')\n","          (2): Dropout(p=0.0, inplace=False)\n","          (3): Linear(in_features=3072, out_features=768, bias=True)\n","          (4): Dropout(p=0.0, inplace=False)\n","        )\n","      )\n","      (encoder_layer_2): EncoderBlock(\n","        (ln_1): LayerNorm((768,), eps=1e-06, elementwise_affine=True)\n","        (self_attention): MultiheadAttention(\n","          (out_proj): NonDynamicallyQuantizableLinear(in_features=768, out_features=768, bias=True)\n","        )\n","        (dropout): Dropout(p=0.0, inplace=False)\n","        (ln_2): LayerNorm((768,), eps=1e-06, elementwise_affine=True)\n","        (mlp): MLPBlock(\n","          (0): Linear(in_features=768, out_features=3072, bias=True)\n","          (1): GELU(approximate='none')\n","          (2): Dropout(p=0.0, inplace=False)\n","          (3): Linear(in_features=3072, out_features=768, bias=True)\n","          (4): Dropout(p=0.0, inplace=False)\n","        )\n","      )\n","      (encoder_layer_3): EncoderBlock(\n","        (ln_1): LayerNorm((768,), eps=1e-06, elementwise_affine=True)\n","        (self_attention): MultiheadAttention(\n","          (out_proj): NonDynamicallyQuantizableLinear(in_features=768, out_features=768, bias=True)\n","        )\n","        (dropout): Dropout(p=0.0, inplace=False)\n","        (ln_2): LayerNorm((768,), eps=1e-06, elementwise_affine=True)\n","        (mlp): MLPBlock(\n","          (0): Linear(in_features=768, out_features=3072, bias=True)\n","          (1): GELU(approximate='none')\n","          (2): Dropout(p=0.0, inplace=False)\n","          (3): Linear(in_features=3072, out_features=768, bias=True)\n","          (4): Dropout(p=0.0, inplace=False)\n","        )\n","      )\n","      (encoder_layer_4): EncoderBlock(\n","        (ln_1): LayerNorm((768,), eps=1e-06, elementwise_affine=True)\n","        (self_attention): MultiheadAttention(\n","          (out_proj): NonDynamicallyQuantizableLinear(in_features=768, out_features=768, bias=True)\n","        )\n","        (dropout): Dropout(p=0.0, inplace=False)\n","        (ln_2): LayerNorm((768,), eps=1e-06, elementwise_affine=True)\n","        (mlp): MLPBlock(\n","          (0): Linear(in_features=768, out_features=3072, bias=True)\n","          (1): GELU(approximate='none')\n","          (2): Dropout(p=0.0, inplace=False)\n","          (3): Linear(in_features=3072, out_features=768, bias=True)\n","          (4): Dropout(p=0.0, inplace=False)\n","        )\n","      )\n","      (encoder_layer_5): EncoderBlock(\n","        (ln_1): LayerNorm((768,), eps=1e-06, elementwise_affine=True)\n","        (self_attention): MultiheadAttention(\n","          (out_proj): NonDynamicallyQuantizableLinear(in_features=768, out_features=768, bias=True)\n","        )\n","        (dropout): Dropout(p=0.0, inplace=False)\n","        (ln_2): LayerNorm((768,), eps=1e-06, elementwise_affine=True)\n","        (mlp): MLPBlock(\n","          (0): Linear(in_features=768, out_features=3072, bias=True)\n","          (1): GELU(approximate='none')\n","          (2): Dropout(p=0.0, inplace=False)\n","          (3): Linear(in_features=3072, out_features=768, bias=True)\n","          (4): Dropout(p=0.0, inplace=False)\n","        )\n","      )\n","      (encoder_layer_6): EncoderBlock(\n","        (ln_1): LayerNorm((768,), eps=1e-06, elementwise_affine=True)\n","        (self_attention): MultiheadAttention(\n","          (out_proj): NonDynamicallyQuantizableLinear(in_features=768, out_features=768, bias=True)\n","        )\n","        (dropout): Dropout(p=0.0, inplace=False)\n","        (ln_2): LayerNorm((768,), eps=1e-06, elementwise_affine=True)\n","        (mlp): MLPBlock(\n","          (0): Linear(in_features=768, out_features=3072, bias=True)\n","          (1): GELU(approximate='none')\n","          (2): Dropout(p=0.0, inplace=False)\n","          (3): Linear(in_features=3072, out_features=768, bias=True)\n","          (4): Dropout(p=0.0, inplace=False)\n","        )\n","      )\n","      (encoder_layer_7): EncoderBlock(\n","        (ln_1): LayerNorm((768,), eps=1e-06, elementwise_affine=True)\n","        (self_attention): MultiheadAttention(\n","          (out_proj): NonDynamicallyQuantizableLinear(in_features=768, out_features=768, bias=True)\n","        )\n","        (dropout): Dropout(p=0.0, inplace=False)\n","        (ln_2): LayerNorm((768,), eps=1e-06, elementwise_affine=True)\n","        (mlp): MLPBlock(\n","          (0): Linear(in_features=768, out_features=3072, bias=True)\n","          (1): GELU(approximate='none')\n","          (2): Dropout(p=0.0, inplace=False)\n","          (3): Linear(in_features=3072, out_features=768, bias=True)\n","          (4): Dropout(p=0.0, inplace=False)\n","        )\n","      )\n","      (encoder_layer_8): EncoderBlock(\n","        (ln_1): LayerNorm((768,), eps=1e-06, elementwise_affine=True)\n","        (self_attention): MultiheadAttention(\n","          (out_proj): NonDynamicallyQuantizableLinear(in_features=768, out_features=768, bias=True)\n","        )\n","        (dropout): Dropout(p=0.0, inplace=False)\n","        (ln_2): LayerNorm((768,), eps=1e-06, elementwise_affine=True)\n","        (mlp): MLPBlock(\n","          (0): Linear(in_features=768, out_features=3072, bias=True)\n","          (1): GELU(approximate='none')\n","          (2): Dropout(p=0.0, inplace=False)\n","          (3): Linear(in_features=3072, out_features=768, bias=True)\n","          (4): Dropout(p=0.0, inplace=False)\n","        )\n","      )\n","      (encoder_layer_9): EncoderBlock(\n","        (ln_1): LayerNorm((768,), eps=1e-06, elementwise_affine=True)\n","        (self_attention): MultiheadAttention(\n","          (out_proj): NonDynamicallyQuantizableLinear(in_features=768, out_features=768, bias=True)\n","        )\n","        (dropout): Dropout(p=0.0, inplace=False)\n","        (ln_2): LayerNorm((768,), eps=1e-06, elementwise_affine=True)\n","        (mlp): MLPBlock(\n","          (0): Linear(in_features=768, out_features=3072, bias=True)\n","          (1): GELU(approximate='none')\n","          (2): Dropout(p=0.0, inplace=False)\n","          (3): Linear(in_features=3072, out_features=768, bias=True)\n","          (4): Dropout(p=0.0, inplace=False)\n","        )\n","      )\n","      (encoder_layer_10): EncoderBlock(\n","        (ln_1): LayerNorm((768,), eps=1e-06, elementwise_affine=True)\n","        (self_attention): MultiheadAttention(\n","          (out_proj): NonDynamicallyQuantizableLinear(in_features=768, out_features=768, bias=True)\n","        )\n","        (dropout): Dropout(p=0.0, inplace=False)\n","        (ln_2): LayerNorm((768,), eps=1e-06, elementwise_affine=True)\n","        (mlp): MLPBlock(\n","          (0): Linear(in_features=768, out_features=3072, bias=True)\n","          (1): GELU(approximate='none')\n","          (2): Dropout(p=0.0, inplace=False)\n","          (3): Linear(in_features=3072, out_features=768, bias=True)\n","          (4): Dropout(p=0.0, inplace=False)\n","        )\n","      )\n","      (encoder_layer_11): EncoderBlock(\n","        (ln_1): LayerNorm((768,), eps=1e-06, elementwise_affine=True)\n","        (self_attention): MultiheadAttention(\n","          (out_proj): NonDynamicallyQuantizableLinear(in_features=768, out_features=768, bias=True)\n","        )\n","        (dropout): Dropout(p=0.0, inplace=False)\n","        (ln_2): LayerNorm((768,), eps=1e-06, elementwise_affine=True)\n","        (mlp): MLPBlock(\n","          (0): Linear(in_features=768, out_features=3072, bias=True)\n","          (1): GELU(approximate='none')\n","          (2): Dropout(p=0.0, inplace=False)\n","          (3): Linear(in_features=3072, out_features=768, bias=True)\n","          (4): Dropout(p=0.0, inplace=False)\n","        )\n","      )\n","    )\n","    (ln): LayerNorm((768,), eps=1e-06, elementwise_affine=True)\n","  )\n","  (heads): Sequential(\n","    (0): Linear(in_features=768, out_features=100, bias=True)\n","    (1): ReLU()\n","    (2): Linear(in_features=100, out_features=10, bias=True)\n","  )\n",")\n"]}],"source":["print(model)"]},{"cell_type":"code","execution_count":null,"metadata":{"id":"c0jc-2C3155N"},"outputs":[],"source":["batch_size=32\n","loss_func = WeightedMAE(7) #loss값 체크\n","patience=7\n","\n","learning_rate = 0.00002\n","optimizer = torch.optim.Adam(model.parameters(), lr=learning_rate)"]},{"cell_type":"code","execution_
…
